…
2020-03-13 04:59:15.800241: I tensorflow/compiler/xla/service/service.cc:176]   StreamExecutor device (0): GeForce GTX 1080 Ti, Compute Capability 6.1
2020-03-13 04:59:15.800339: I tensorflow/core/common_runtime/gpu/gpu_device.cc:1096] Device interconnect StreamExecutor with strength 1 edge matrix:
2020-03-13 04:59:15.800357: I tensorflow/core/common_runtime/gpu/gpu_device.cc:1102]      
Model: "sequential"
_________________________________________________________________
Layer (type)                 Output Shape              Param #   
=================================================================
conv2d (Conv2D)              (None, 86, 86, 53)        1484      
_________________________________________________________________
activation (Activation)      (None, 86, 86, 53)        0         
_________________________________________________________________
conv2d_1 (Conv2D)            (None, 86, 86, 58)        27724     
_________________________________________________________________
activation_1 (Activation)    (None, 86, 86, 58)        0         
_________________________________________________________________
max_pooling2d (MaxPooling2D) (None, 43, 43, 58)        0         
_________________________________________________________________
dropout (Dropout)            (None, 43, 43, 58)        0         
_________________________________________________________________
conv2d_2 (Conv2D)            (None, 43, 43, 64)        33472     
_________________________________________________________________
activation_2 (Activation)    (None, 43, 43, 64)        0         
_________________________________________________________________
conv2d_3 (Conv2D)            (None, 43, 43, 70)        40390     
_________________________________________________________________
activation_3 (Activation)    (None, 43, 43, 70)        0         
_________________________________________________________________
max_pooling2d_1 (MaxPooling2 (None, 21, 21, 70)        0         
_________________________________________________________________
dropout_1 (Dropout)          (None, 21, 21, 70)        0         
_________________________________________________________________
global_average_pooling2d (Gl (None, 70)                0         
_________________________________________________________________
dropout_2 (Dropout)          (None, 70)                0         
_________________________________________________________________
flatten (Flatten)            (None, 70)                0         
_________________________________________________________________
dense (Dense)                (None, 2)                 142       
_________________________________________________________________
activation_4 (Activation)    (None, 2)                 0         
=================================================================
Total params: 103,212
Trainable params: 103,212
Non-trainable params: 0
_________________________________________________________________
WARNING:tensorflow:From source/train.py:141: Model.fit_generator (from tensorflow.python.keras.engine.training) is deprecated and will be removed in a future version.
Instructions for updating:
…
